DATCSTP(
  (pe): PatchEmbed_CNN3D(
    (net): Sequential(
      (0): Conv3d(1, 64, kernel_size=(3, 3, 3), stride=(2, 2, 2), padding=(1, 1, 1), bias=False)
      (1): GELU(approximate='none')
      (2): BatchNorm3d(64, eps=1e-05, momentum=0.1, affine=True, track_running_stats=True)
      (3): Conv3d(64, 64, kernel_size=(3, 3, 3), stride=(1, 1, 1), padding=(1, 1, 1), bias=False)
      (4): GELU(approximate='none')
      (5): BatchNorm3d(64, eps=1e-05, momentum=0.1, affine=True, track_running_stats=True)
      (6): Conv3d(64, 128, kernel_size=(1, 1, 1), stride=(1, 1, 1), bias=False)
    )
  )
  (net): ModuleList(
    (0-5): 6 x Block(
      (drop_path): DropPath(drop_prob=0.200)
      (satt): Attention(
        (norm): LayerNorm()
        (att): Sequential(
          (0): Conv2d(128, 128, kernel_size=(1, 1), stride=(1, 1))
          (1): GELU(approximate='none')
          (2): Conv2d(128, 128, kernel_size=(7, 7), stride=(1, 1), padding=(3, 3), groups=128)
        )
        (v): Conv2d(128, 128, kernel_size=(1, 1), stride=(1, 1))
        (proj): Conv2d(128, 128, kernel_size=(1, 1), stride=(1, 1))
      )
      (tatt): Attention(
        (norm): LayerNorm()
        (att): Sequential(
          (0): Conv2d(640, 640, kernel_size=(1, 1), stride=(1, 1))
          (1): GELU(approximate='none')
          (2): Conv2d(640, 640, kernel_size=(7, 7), stride=(1, 1), padding=(3, 3), groups=640)
        )
        (v): Conv2d(640, 640, kernel_size=(1, 1), stride=(1, 1))
        (proj): Conv2d(640, 640, kernel_size=(1, 1), stride=(1, 1))
      )
      (mlp): Mlp(
        (norm): LayerNorm()
        (fc1): Conv2d(128, 256, kernel_size=(1, 1), stride=(1, 1))
        (pos): Conv2d(256, 256, kernel_size=(3, 3), stride=(1, 1), padding=(1, 1), groups=256)
        (fc2): Conv2d(256, 128, kernel_size=(1, 1), stride=(1, 1))
        (act): GELU(approximate='none')
      )
    )
  )
  (pb): PatchEmbed_CNN3D(
    (net): Sequential(
      (0): ConvTranspose3d(128, 64, kernel_size=(1, 1, 1), stride=(1, 1, 1), bias=False)
      (1): GELU(approximate='none')
      (2): BatchNorm3d(64, eps=1e-05, momentum=0.1, affine=True, track_running_stats=True)
      (3): Conv3d(64, 64, kernel_size=(3, 3, 3), stride=(1, 1, 1), padding=(1, 1, 1), bias=False)
      (4): GELU(approximate='none')
      (5): BatchNorm3d(64, eps=1e-05, momentum=0.1, affine=True, track_running_stats=True)
      (6): ConvTranspose3d(64, 1, kernel_size=(3, 3, 3), stride=(2, 2, 2), padding=(1, 1, 1), output_padding=(1, 1, 1), bias=False)
    )
  )
)
| module             | #parameters or shape   | #flops    |
|:-------------------|:-----------------------|:----------|
| model              | 8.58M                  | 51.079G   |
|  pe.net            |  0.121M                |  2.481G   |
|   pe.net.0         |   1.728K               |   35.389M |
…
